my_model/quant_onnx_model_with_stat_mode.onnx (onnx, 645596 bytes, 4 tensors)

fc1.weight_scale f4 [128]
000000 fa 29 af 3b e5 53 b2 3b 16 09 c8 3b 65 4c f4 3b
       0.00534558 0.00544213 0.0061045988 0.007455396
000010 f0 90 a3 3b d5 65 c9 3b 09 de 25 39 ee 16 b6 3b
       0.004991643 0.0061461725 0.00015818341 0.0055569327
000020 e1 fb be 3b b9 9c ac 3b 47 5b 05 3c 76 c8 ad 3b
       0.005828366 0.0052677062 0.008139438 0.005303438
000030 a0 3f fc 3b 8b 81 af 3b bc ae f7 3b 93 a7 ab 3b
       0.0076980144 0.005356019 0.0075586718 0.0052384823
000040 77 8d b5 3b 30 4f bd 3b 04 8e c4 3b d1 23 b4 3b
       0.0055405456 0.005777262 0.005998375 0.0054974337
000050 0a f5 bb 3b 83 85 b4 3b f0 ec ca 3b c8 95 ba 3b
       0.005735998 0.00550908 0.006192796 0.005694125
000060 85 45 a4 3b ef 26 cd 3b a8 55 d0 3b dc 30 a7 3b
       0.00501317 0.0062607448 0.0063578673 0.00510226
000070 c7 71 de 3b fa 56 b1 3b 76 91 ac 3b 93 92 c2 3b
       0.0067884657 0.0054119797 0.0052663637 0.005937883
000080 1d 60 ce 3b 3e e6 ba 3b 4d ec dd 3b 08 5a b3 3b
       0.0062980787 0.0057037165 0.006772554 0.005473379
000090 52 c5 03 3c 86 cc ca 3b 4a 21 b0 3b 9e 44 d1 3b
       0.00804265 0.006188932 0.005375062 0.0063863536
0000a0 da ad ee 3b 6f eb a8 3b dd 11 a9 3b 31 32 a8 3b
       0.0072839083 0.005155019 0.0051596 0.0051329364
0000b0 cd 55 e7 3b 9e 25 d9 3b 30 78 a6 3b 80 4d ba 3b
       0.007059789 0.006626799 0.0050802454 0.0056855083
0000c0 c7 83 ca 3b 48 45 bd 3b d7 6d e9 3b 03 d5 b5 3b
       0.00618026 0.0057760812 0.0071236896 0.0055490746
0000d0 33 b7 04 3c 39 30 d3 3b fa 55 08 3c b6 52 ad 3b
       0.008100319 0.0064449576 0.00832128 0.005289401
0000e0 ae 84 de 3b 7f 69 bf 3b 89 33 fe 3b 9d d3 bb 3b
       0.006790719 0.0058414335 0.0077576083 0.0057320134
0000f0 77 78 df 3b a4 c3 ac 3b 64 11 e4 3b c4 40 af 3b
       0.0068197805 0.0052723456 0.006960081 0.005348297
000100 e4 e6 e9 3b b3 5c a1 3b 7d f4 d1 3b 1e 5c d0 3b
       0.00713812 0.0049243807 0.006407319 0.0063586375
000110 b9 77 b0 3b 20 e7 9c 3b f0 d8 d0 3b 93 6d f2 3b
       0.005385366 0.0047882944 0.006373517 0.007398316
000120 3c 56 97 3b cc 9d cf 3b e0 37 cb 3b 3d e0 9c 3b
       0.0046184342 0.0063359495 0.006201729 0.0047874735
000130 83 d3 53 39 83 24 00 3c 51 7a da 3b 5a c9 f3 3b
       0.00020201322 0.007821205 0.0066674133 0.0074397745
000140 9d 57 e8 3b 3e 9d dd 3b 4f e5 b1 3b 02 97 7b 3b
       0.0070905224 0.0067631295 0.005428947 0.0038389568
000150 f5 f5 b6 3b 8a e9 f0 3b c9 a7 b2 3b 95 b3 ab 3b
       0.0055835196 0.007352059 0.0054521305 0.0052399137
000160 fd 07 ae 3b 37 e6 9e 3b 5a db 9e 3b 60 2e b2 3b
       0.005311011 0.004849221 0.004847926 0.0054376572
000170 5e bf d4 3b eb c7 be 3b e8 3f de 3b b8 1e f4 3b
       0.0064925393 0.005822172 0.0067825206 0.007449951
000180 90 1a be 3b 94 36 a6 3b d0 1a e3 3b 3f 56 ba 3b
       0.0058015063 0.005072424 0.0069306865 0.005686551
000190 73 0a e5 3b 93 03 f8 3b 1c 17 9a 39 11 58 ac 3b
       0.006989771 0.0075687855 0.00029390387 0.005259522
0001a0 69 d8 5f 39 7a 7e 03 3c 0a e2 b6 3b c5 78 b2 3b
       0.00021347556 0.00802576 0.005581145 0.0054465258
0001b0 ee 38 af 3b 36 5f ba 3b fd 55 ec 3b 41 14 ce 3b
       0.0053473627 0.0056876196 0.007212399 0.0062890355
0001c0 47 53 ae 3b 5f d6 a8 3b a8 a2 a2 3b 49 90 00 3c
       0.005319986 0.005152508 0.004963238 0.0078469
0001d0 ee ed ff 3b 5e 3e bd 3b f4 d4 dd 3b 10 1a a0 3b
       0.007810346 0.005775257 0.0067697708 0.0048859194
0001e0 65 d7 e7 3b f7 24 f4 3b 7b 67 db 3b b1 63 d2 3b
       0.0070752376 0.0074506956 0.0066956854 0.0064205755
0001f0 2b 33 9e 3b 5a 3f ba 3b 05 64 be 3b c6 1f 95 3b
       0.004827877 0.0056838216 0.005810263 0.004550907

fc1.weight_quantized i1 [128, 5000]
000000 05 02 ef fe d4 00 e0 17 ef ef 12 fa 0e 0e 22 e7
       5 2 -17 -2 -44 0 -32 23 -17 -17 18 -6 14 14 34 -25
000010 dd 0a 15 1d e2 04 0b fc e5 11 07 2d e5 e9 fa 06
       -35 10 21 29 -30 4 11 -4 -27 17 7 45 -27 -23 -6 6
000020 0f 33 f7 f8 e8 1a f1 06 f5 f2 29 ea 16 09 1c 02
       15 51 -9 -8 -24 26 -15 6 -11 -14 41 -22 22 9 28 2
000030 ef da 3c 0d 10 f7 0b 21 2c f3 f2 eb 04 e9 ed 2f
       -17 -38 60 13 16 -9 11 33 44 -13 -14 -21 4 -23 -19 47
000040 1e 19 1c 09 10 f9 0f fe 00 07 17 16 17 27 18 03
       30 25 28 9 16 -7 15 -2 0 7 23 22 23 39 24 3
000050 2e dd 14 30 f8 0a f2 ea 10 f2 33 08 fd 24 db d7
       46 -35 20 48 -8 10 -14 -22 16 -14 51 8 -3 36 -37 -41
000060 d6 10 da 06 f5 f9 fd f3 e5 f0 15 08 08 0f 01 07
       -42 16 -38 6 -11 -7 -3 -13 -27 -16 21 8 8 15 1 7
000070 05 0b 17 16 08 f8 e9 f7 11 11 fd d6 f9 11 1e 2f
       5 11 23 22 8 -8 -23 -9 17 17 -3 -42 -7 17 30 47
000080 0b 03 2f 09 01 e9 ea fa 09 08 34 01 fc 15 0a 04
       11 3 47 9 1 -23 -22 -6 9 8 52 1 -4 21 10 4
000090 11 02 fe 13 12 ea 00 f0 ef 0e 23 20 f0 04 ce 1a
       17 2 -2 19 18 -22 0 -16 -17 14 35 32 -16 4 -50 26
0000a0 05 22 07 15 00 f1 04 e1 2b d6 1c dd 04 26 fa fb
       5 34 7 21 0 -15 4 -31 43 -42 28 -35 4 38 -6 -5
0000b0 17 10 e4 3f 14 1c 0f 0c 3c db e9 04 0b f0 1d fe
       23 16 -28 63 20 28 15 12 60 -37 -23 4 11 -16 29 -2
0000c0 ff 10 f1 22 0c bd fc fe fa ed 1d 13 17 db f9 fb
       -1 16 -15 34 12 -67 -4 -2 -6 -19 29 19 23 -37 -7 -5
0000d0 16 0c ea 21 0d e5 5d ef ce 06 02 dc f4 f2 fa e3
       22 12 -22 33 13 -27 93 -17 -50 6 2 -36 -12 -14 -6 -29
0000e0 f2 0b 03 ff 02 f2 fd 11 ef 00 de 17 f7 f5 0d ed
       -14 11 3 -1 2 -14 -3 17 -17 0 -34 23 -9 -11 13 -19
0000f0 de 22 04 18 eb f4 e5 01 1b 0d f2 0a 3b 1a f6 09
       -34 34 4 24 -21 -12 -27 1 27 13 -14 10 59 26 -10 9

fc2.weight_quantized i1 [1, 128]
000000 c9 e5 eb 26 d2 6b fe cd ef f4 31 e7 45 d5 43 a7
       -55 -27 -21 38 -46 107 -2 -51 -17 -12 49 -25 69 -43 67 -89
000010 d8 58 0c d9 b4 f2 12 e5 ce 12 16 dc 17 f3 ea c9
       -40 88 12 -39 -76 -14 18 -27 -50 18 22 -36 23 -13 -22 -55
000020 12 da 1c df 43 36 c6 27 0f cc c9 d2 0b 16 d6 ed
       18 -38 28 -33 67 54 -58 39 15 -52 -55 -46 11 22 -42 -19
000030 62 d2 21 f3 1f 28 5a da 0d 22 1d 10 1c f1 a7 f3
       98 -46 33 -13 31 40 90 -38 13 34 29 16 28 -15 -89 -13
000040 2f b9 1b 0e df f0 17 17 43 10 1b df 00 3c 11 2d
       47 -71 27 14 -33 -16 23 23 67 16 27 -33 0 60 17 45
000050 32 1b f4 cf ec 0f a3 f2 c5 a8 ca f0 34 0c 18 14
       50 27 -12 -49 -20 15 -93 -14 -59 -88 -54 -16 52 12 24 20
000060 f2 e3 3e ec 0b 7f 00 ef 01 2d f3 f3 f3 d1 14 59
       -14 -29 62 -20 11 127 0 -17 1 45 -13 -13 -13 -47 20 89
000070 d0 bb d9 42 27 ef 1f e2 1d 7f 41 79 c9 dd 67 4b
       -48 -69 -39 66 39 -17 31 -30 29 127 65 121 -55 -35 103 75

fc1.bias_quantized_scale f4 [128]
000000 f8 85 93 37 16 30 96 37 5c 78 a8 37 9a bf cd 37
       1.758615e-05 1.7903785e-05 2.0083207e-05 2.4527126e-05
000010 71 c1 89 37 13 9e a9 37 95 b1 0b 35 27 5b 99 37
       1.642175e-05 2.0219979e-05 5.203995e-07 1.8281467e-05
000020 ce d8 a0 37 cd 5f 91 37 49 a0 e0 37 3d 5c 92 37
       1.9174444e-05 1.7329958e-05 2.677752e-05 1.7447508e-05
000030 ad 71 d4 37 b8 cf 93 37 3c 99 d0 37 56 91 90 37
       2.5325304e-05 1.7620492e-05 2.4866888e-05 1.7233815e-05
000040 62 e7 98 37 c2 6f 9f 37 e6 89 a5 37 cd b6 97 37
       1.8227558e-05 1.9006318e-05 1.9733747e-05 1.8085726e-05
000050 3c 4c 9e 37 14 09 98 37 76 e7 aa 37 67 24 9d 37
       1.8870567e-05 1.812404e-05 2.0373362e-05 1.873281e-05
000060 87 59 8a 37 84 c7 ac 37 ad 75 af 37 f0 ce 8c 37
       1.6492571e-05 2.0596905e-05 2.0916423e-05 1.6785663e-05
000070 cf 57 bb 37 14 5b 95 37 51 56 91 37 88 de a3 37
       2.2333026e-05 1.7804596e-05 1.7325541e-05 1.9534738e-05
000080 46 cf ad 37 2b 68 9d 37 65 e7 ba 37 db 0c 97 37
       2.0719726e-05 1.8764365e-05 2.228068e-05 1.8006589e-05
000090 7e f4 dd 37 2a cc aa 37 42 56 94 37 ed 3e b0 37
       2.6459104e-05 2.036065e-05 1.7683142e-05 2.1010137e-05
0000a0 0f 04 c9 37 ad 43 8e 37 0b 64 8e 37 aa a7 8d 37
       2.3962957e-05 1.6959233e-05 1.6974305e-05 1.6886584e-05
0000b0 ad d4 c2 37 a6 e1 b6 37 68 33 8c 37 87 e7 9c 37
       2.3225637e-05 2.1801166e-05 1.6713238e-05 1.8704462e-05
0000c0 e5 8e aa 37 6b 67 9f 37 21 98 c4 37 a3 23 99 37
       2.033212e-05 1.9002435e-05 2.3435861e-05 1.8255616e-05
0000d0 ea 8b df 37 f5 dc b1 37 fb a4 e5 37 12 f9 91 37
       2.6648824e-05 2.1202935e-05 2.7375752e-05 1.740133e-05
0000e0 ba 67 bb 37 20 35 a1 37 b3 16 d6 37 15 30 9e 37
       2.2340439e-05 1.9217434e-05 2.5521358e-05 1.8857458e-05
0000f0 0b 35 bc 37 93 80 91 37 40 14 c0 37 2a 99 93 37
       2.2436046e-05 1.7345219e-05 2.2897613e-05 1.7595088e-05
000100 14 fe c4 37 3d e6 87 37 0c d3 b0 37 1e 7b af 37
       2.3483335e-05 1.6200467e-05 2.1079111e-05 2.0918957e-05
000110 0d 9f 94 37 ce 24 84 37 3d e4 af 37 57 2c cc 37
       1.7717039e-05 1.5752765e-05 2.0967907e-05 2.4339342e-05
000120 85 e9 7e 37 d4 da ae 37 93 26 ab 37 01 1f 84 37
       1.519395e-05 2.0844316e-05 2.0402751e-05 1.5750064e-05
000130 7b 66 32 35 01 d8 d7 37 96 00 b8 37 3d 51 cd 37
       6.6459296e-07 2.5730582e-05 2.1934782e-05 2.4475734e-05
000140 cf ad c3 37 cf a4 ba 37 f3 d2 95 37 aa e3 53 37
       2.3326747e-05 2.2249673e-05 1.7860415e-05 1.2629587e-05
000150 fd 16 9a 37 89 e5 ca 37 bd 76 96 37 73 9b 90 37
       1.8368935e-05 2.4187162e-05 1.7936685e-05 1.7238524e-05
000160 be 91 92 37 3f d3 85 37 19 ca 85 37 7c 10 96 37
       1.7472423e-05 1.5953205e-05 1.5948945e-05 1.788907e-05
000170 1e 2d b3 37 0b ad a0 37 ce 2d bb 37 22 99 cd 37
       2.1359472e-05 1.9154066e-05 2.2313467e-05 2.4509212e-05
000180 0b 1b a0 37 27 fc 8b 37 95 44 bf 37 e5 ee 9c 37
       1.908608e-05 1.6687509e-05 2.280091e-05 1.8707893e-05
000190 02 e6 c0 37 b0 e0 d0 37 68 c6 81 35 fa 25 91 37
       2.299529e-05 2.490016e-05 9.668993e-07 1.7303031e-05
0001a0 d9 85 3c 35 2a 7d dd 37 37 06 9a 37 24 4f 96 37
       7.023023e-07 2.6403537e-05 1.8361125e-05 1.7918246e-05
0001b0 90 92 93 37 72 f6 9c 37 da 0a c7 37 63 8f ad 37
       1.7592014e-05 1.871141e-05 2.3727702e-05 2.0689977e-05
0001c0 27 d1 92 37 f0 31 8e 37 c3 f8 88 37 8a 8d d8 37
       1.750195e-05 1.6950973e-05 1.6328302e-05 2.5815116e-05
0001d0 49 8b d7 37 98 61 9f 37 bb d3 ba 37 84 d6 86 37
       2.5694857e-05 1.8999723e-05 2.2271523e-05 1.6073936e-05
0001e0 d2 41 c3 37 65 9e cd 37 53 c8 b8 37 b4 30 b1 37
       2.3276461e-05 2.4511663e-05 2.2027793e-05 2.1122723e-05
0001f0 74 3c 85 37 9d db 9c 37 e8 58 a0 37 5f 2f 7b 37
       1.5882986e-05 1.8698915e-05 1.9114887e-05 1.4971795e-05
